NLP/chatbot/v1/weights/data.pth (torch, 5055 bytes, 6 tensors)

l1.weight f4 [8, 54]
0	0x3f07a2a2	0.5298253
1	0x3c8ae99b	0.016957095
2	0xbe683006	-0.2267457
3	0x3f0c80a9	0.5488382
4	0xbcb3330b	-0.021874925
5	0xbdd6451f	-0.104624026
6	0xbdaaac1d	-0.08333609
7	0xbe41e4a7	-0.1893488
8	0xbefc8d32	-0.49326473
9	0xbeb7af2a	-0.35875827
10	0x3ec0aa1a	0.37629777
11	0x3ec0d949	0.37665775
12	0xbee7172a	-0.4513486
13	0x3dca45ba	0.098765805
14	0xbe3fef52	-0.18743637
15	0x3e95725a	0.29188806
16	0x3f07c3b8	0.5303302
17	0xbdce9351	-0.10086692
18	0xbdff4261	-0.12463833
19	0x3f0df844	0.5545695
20	0x3e8d9580	0.27653122
21	0x3f1ef2d1	0.6208926
22	0x3f227c76	0.6347116
23	0x3efc2b3b	0.49251732
24	0xbd21c8dd	-0.0394982
25	0x3f03627c	0.5132215
26	0xbe94bf39	-0.2905214
27	0xbe8ebf70	-0.2788043
28	0xbea37d9b	-0.31931767
29	0xbeb5a5a5	-0.3547794
30	0xbd95f611	-0.07322324
31	0x3e66a750	0.22524762
32	0x3e96bf44	0.294428
33	0xbeb9e89f	-0.36310288
34	0xbe5bf200	-0.21479034
35	0x3eca3099	0.39490202
36	0xbe179770	-0.14803863
37	0xbf135411	-0.5755015
38	0xbe646a48	-0.22306168
39	0xbdf1f9e5	-0.11815242
40	0xbe50d321	-0.2039304
41	0xbe95b5fd	-0.2924041
42	0x3e4ccbb5	0.19999583
43	0xbd996cf7	-0.074914865
44	0x3cfdd5ae	0.03098568
45	0xbeb28e86	-0.34874362
46	0x3f56fae8	0.839766
47	0x3ee8e761	0.45489028
48	0x3e9a7569	0.30167702
49	0xbeb20626	-0.34770316
50	0x3e5ecc39	0.21757592
51	0xbe67e74a	-0.22646824
52	0xbea58bda	-0.3233326
53	0x3e882800	0.26593018
54	0x3e889596	0.26676625
55	0x3e97ea84	0.2967111
56	0x3ebef6fb	0.37297806
57	0xbe003be2	-0.12522843
58	0xbea757a3	-0.3268405
59	0xbcdf2a49	-0.027241843
60	0x3eac35fa	0.3363493
61	0x3f116556	0.5679525
62	0xbe28c16f	-0.16480039
63	0x3f0ff59c	0.56234145
64	0xbdf70d00	-0.120630264
65	0xbe196a05	-0.1498185
66	0x3e8e2c2c	0.27768075
67	0xbc48cbe2	-0.012255641
68	0x3e881f9e	0.26586622
69	0xbe8044d0	-0.250525
70	0xbde07c8b	-0.10961255
71	0xbd9513b6	-0.0727915
72	0xbea77735	-0.32708135
73	0xbeabc575	-0.33549085
74	0x3eac5d3d	0.33664885
75	0xbeaeb991	-0.3412595
76	0xbeaebd6c	-0.34128892
77	0xbe8b6ecf	-0.27232978
78	0x3e4eac46	0.20182905
79	0xbdf661fb	-0.12030407
80	0xbe92ff30	-0.28710318
81	0x3ee6ff4c	0.4511665
82	0x3d0bc141	0.03411985
83	0x3ea4c578	0.32181907
84	0xbe60a32c	-0.21937245
85	0xbe2bbd21	-0.16771366
86	0x3d1e3b91	0.038631026
87	0x3eead2e2	0.45864016
88	0x3e9248ac	0.2857107
89	0xbe3f390e	-0.18674108
90	0xbd60767f	-0.054800507
91	0xbe0bd06d	-0.13653727
92	0x3e9babac	0.30404413
93	0x3eca6f8b	0.39538226
94	0xbe31d64f	-0.17366908
95	0xbeeeb8d7	-0.46625397
96	0xbde36fe5	-0.111053266
97	0x3ec4792a	0.3837369
98	0x3e62d447	0.2215129
99	0x3ecfad34	0.4056183
100	0x3f0368f1	0.51332
101	0x3eaba5e6	0.33525008
102	0xbde7a339	-0.11310429
103	0xbe82fc5a	-0.25583154
104	0xbe6f99ff	-0.23398589
105	0xbe86a2b4	-0.26296008
106	0x3ede10b8	0.4337213
107	0x3e84036e	0.25783867
108	0x3e835cb6	0.2565667
109	0x3f04260d	0.5162056
110	0xbedfeace	-0.4373383
111	0x3d90bed7	0.0706765
112	0x3e2aa916	0.16666064
113	0x3f081bd2	0.5316745
114	0xbe3bb097	-0.18329082
115	0xbd7cf985	-0.061761398
116	0xbe02df30	-0.12780452
117	0xbe2bb1cd	-0.16767044
118	0x3d854fc2	0.06509353
119	0xbe136b31	-0.14396359
120	0xbd95875a	-0.07301207
121	0xbe2df4cf	-0.16987918
122	0x3ed17d59	0.40915945
123	0xbd1ddc12	-0.038539954
124	0x3d2dad05	0.042401332
125	0x3f0972fb	0.5369107
126	0xbe5e6ef0	-0.21722007
127	0xbdc37d06	-0.09545331
128	0x3e294cf7	0.16533266
129	0xbdea1b46	-0.11430983
130	0x3c0dea9e	0.008661894
131	0xbe011518	-0.12605703
132	0xbe2d2f7a	-0.16912642
133	0x3de070a5	0.10958985
134	0xbee43f01	-0.44579318
135	0x3f029775	0.51012355
136	0x3c94f356	0.018182438
137	0x3eae00a0	0.33984852
138	0x3e8fd67f	0.28093335
139	0xbdff6686	-0.12470727
140	0x3e37b3d2	0.1793969
141	0xbeafb1c6	-0.34315318
142	0x3ef59a5e	0.47969335
143	0xbdf23ce2	-0.11828019
144	0xbd3cff82	-0.04614211
145	0xbde10ab7	-0.10988372
146	0xbe49b5f0	-0.1969831
147	0xbe466891	-0.19375826
148	0x3eb7c060	0.35888958
149	0xbef1e560	-0.47245312
150	0xbe1372cc	-0.1439926
151	0x3ea3ac02	0.3196717
152	0xbe3a522a	-0.18195406
153	0x3efd45ed	0.49467412
154	0x3f1603ec	0.58599734
155	0x3d84637a	0.06464286
156	0xbc78ddf3	-0.015189636
157	0xbeda4be6	-0.4263603
158	0xbe50a8bf	-0.20376872
159	0xbe7221c3	-0.23645692
160	0xbb7dd383	-0.0038730807
161	0x3e667007	0.22503673
162	0xbec7452d	-0.38919964
163	0x3ee5d272	0.4488712
164	0x3ea098f8	0.31366706
165	0x3ec6dca5	0.38840213
166	0x3f04b9f1	0.51846224
167	0x3ec77e1e	0.38963407
168	0x3ea17a70	0.31538725
169	0x3e2d45c6	0.16921148
170	0x3e669e35	0.22521289
171	0x3e7b55fb	0.24544518
172	0x3ee6398f	0.4496579
173	0xbec55440	-0.3854084
174	0x3ebabd7b	0.36472687
175	0xbe1a3668	-0.15059817
176	0x3eab7b8c	0.33492696
177	0xbe8be43a	-0.2732256
178	0x3ef181a1	0.47169212
179	0x3eab83c1	0.33498958
180	0x3ee40971	0.44538453
181	0x3ee51632	0.44743496
182	0xbe842f70	-0.25817442
183	0x3eecee97	0.4627578
184	0x3ee3d70d	0.44500008
185	0xbe7789b8	-0.2417363
186	0x3e4034b7	0.18770109
187	0x3e6da562	0.2320762
188	0x3ef68fce	0.4815659
189	0x3f082266	0.5317749
190	0x3ed7d013	0.42150936
191	0x3eaba9e6	0.3352806
192	0x3e6657b7	0.22494398
193	0xbe73821e	-0.23780105
194	0xbdd11457	-0.10208958
195	0x3e81e7f5	0.25372282
196	0x3efc4a80	0.4927559
197	0xbecbf486	-0.39834994
198	0x3ecdbbff	0.40182492
199	0x3e5ff3d0	0.21870351
200	0x3ee16c2d	0.44027844
201	0x3e9cc35a	0.3061779
202	0xbadd1cd4	-0.0016869553
203	0x3e61f6f9	0.22066869
204	0xbea824f4	-0.32840693
205	0x3f03f30d	0.5154274
206	0x3e0af031	0.13568188
207	0x3f0d6918	0.55238485
208	0xbf389a8c	-0.7211082
209	0xbe1f6fbe	-0.1556997
210	0x3ee7aeac	0.45250452
211	0x3f1275a8	0.5721078
212	0xbe4308c0	-0.19046307
213	0x3e96755c	0.29386413
214	0x3e9b628a	0.30348617
215	0x3ebf5f32	0.37377316
216	0x3ec75a80	0.38936234
217	0x3e8dc386	0.27688235
218	0x3e41a357	0.18909965
219	0x3e5fdd3b	0.21861736
220	0x3e98164a	0.29704505
221	0xbe5b9206	-0.21442422
222	0x3e8083a0	0.25100422
223	0x3e706014	0.23474151
224	0xbc57d82a	-0.013174096
225	0x3e7c4071	0.24633957
226	0x3ea2d7f8	0.31805396
227	0xbe5cf2cb	-0.21576993
228	0xbe532ba8	-0.20622122
229	0xbe874414	-0.26419127
230	0x3e12c74f	0.14333843
231	0xbe3fa47a	-0.18715087
232	0x3dedce61	0.11611629
233	0xbe785df7	-0.24254595
234	0xbea5734a	-0.3231452
235	0x3ecd4a7a	0.40095884
236	0x3eb03cf7	0.34421512
237	0x3e8827b4	0.2659279
238	0x3ea16dde	0.31529135
239	0x3e8a9600	0.27067566
240	0xbbe73b27	-0.007056612
241	0x3e2b0ac2	0.16703323
242	0xbed28e63	-0.41124257
243	0x3ed6b805	0.4193727
244	0xbe5115f3	-0.20418529
245	0x3ea0ee27	0.31431696
246	0xbe0cd846	-0.13754377
247	0xbeb703ab	-0.35744986
248	0x3e6dd64a	0.23226276
249	0x3e9cfa89	0.30659893
250	0x3dfbf486	0.123024985
251	0x372ff7fb	1.048855e-05
252	0xbe2abdc5	-0.16673954
253	0xbe24fb0b	-0.1611139
254	0x3e8bc5ed	0.27299443
255	0x3daa5829	0.083175965

l1.bias f4 [8]
0	0x3f533c2f	0.8251371
1	0x3eaeb9c6	0.3412611
2	0x3f3f1ea8	0.7465615
3	0x3f52b2ad	0.8230389
4	0x3f536dee	0.82589614
5	0x3ef59d2f	0.47971484
6	0x3f24aba9	0.6432443
7	0x3f2938d7	0.66102356

l2.weight f4 [8, 8]
0	0xbf7e6180	-0.99367523
1	0x3ed72f3d	0.42028227
2	0x3e9bcc80	0.3042946
3	0x3f431b1a	0.7621323
4	0xbeba4802	-0.36383063
5	0x3f198748	0.5997205
6	0x3e7ba0fa	0.24573126
7	0x3facf9db	1.351375
8	0x3fa3c7e1	1.2795373
9	0x3e9528eb	0.2913278
10	0x3fb23152	1.3921301
11	0x3eba5df2	0.363998
12	0x3fa87e4a	1.316354
13	0xbf72b73c	-0.94810843
14	0x3ea1f02e	0.31628555
15	0x3f2ee247	0.6831402
16	0x3f5322d7	0.82475036
17	0xbec16d0b	-0.37778506
18	0xbf0fe15a	-0.56203234
19	0xbf0636d5	-0.5242742
20	0xbbd5cb7c	-0.0065245014
21	0x3f248b8a	0.6427542
22	0xbe4586de	-0.19289729
23	0xbe8663f6	-0.2624814
24	0xbf7641fc	-0.96194434
25	0x3f39d306	0.7258762
26	0x3f2ed29d	0.6829012
27	0x3f7f0f46	0.9963268
28	0x3f4f20c9	0.809094
29	0x3eb7a98c	0.35871542
30	0xbf6bbd81	-0.92086035
31	0xbf6b419f	-0.91897005
32	0x3f13b4ce	0.5769776
33	0x3f76c9c9	0.9640165
34	0x3e94deb4	0.2907616
35	0xbf354f18	-0.7082381
36	0x3f3d49b0	0.73940563
37	0xbe358d7c	-0.17729753
38	0xbf656bb0	-0.89617443
39	0x3f0c0ba7	0.5470528
40	0x3f150a4b	0.5821883
41	0xbeb0fdc4	-0.34568608
42	0xbf5f012d	-0.8711117
43	0x3f88e119	1.0693694
44	0x3e30d4c0	0.17268658
45	0x3f0bb668	0.54575205
46	0x3f725d78	0.9467387
47	0xbf2d321e	-0.676546
48	0xbea3d8e0	-0.320014
49	0xbd329b66	-0.04360523
50	0xbec6ab51	-0.3880258
51	0x3eb07d4d	0.34470597
52	0xbf1ff713	-0.6248638
53	0x3fa9dd6c	1.3270698
54	0x3d9e8fb5	0.07742254
55	0x3fa6d3c9	1.3033382
56	0xbef1de11	-0.47239736
57	0x3b92cb9c	0.0044798385
58	0x3def13df	0.11673712
59	0x3f9735e2	1.1813319
60	0xbecef4ab	-0.40421042
61	0x3e2789b4	0.16361123
62	0x3f856cfa	1.0423882
63	0x3f6f2cbf	0.9342765

l2.bias f4 [8]
0	0xbd38892e	-0.0450527
1	0x3eefedca	0.46861106
2	0x3d3d391e	0.04619705
3	0x3daa8073	0.08325281
4	0xbd1eda6d	-0.038782526
5	0x3f20755d	0.6267908
6	0x3ee76b81	0.45199206
7	0xbe045556	-0.12923178

l3.weight f4 [7, 8]
0	0xbec40cb9	-0.38290957
1	0xbfafbbdb	-1.3729204
2	0x3f761331	0.96123034
3	0xbf397d61	-0.7245694
4	0xbe95ac0f	-0.29232833
5	0x3de13e43	0.109982036
6	0x3f295677	0.6614756
7	0xbf795d0c	-0.97407603
8	0xbd94e810	-0.07270825
9	0x3d388001	0.04504395
10	0xbf617fc0	-0.88085556
11	0x3f3d5a24	0.7396567
12	0x3dadd092	0.08487047
13	0xbf7a2497	-0.9771208
14	0xbfb2a7f3	-1.3957504
15	0xbe8424ed	-0.25809422
16	0x3e960d3b	0.2930697
17	0x3d15810f	0.036500033
18	0xbf204799	-0.6260925
19	0xbfb2a384	-1.3956151
20	0xbf11e9ae	-0.5699719
21	0xbd8626f1	-0.06550396
22	0x3d553575	0.052052934
23	0x3d7cf419	0.061756227
24	0xbfcf9ca4	-1.6219678
25	0x3f21cc2d	0.6320217
26	0xbe711ab9	-0.2354535
27	0xbf3dc628	-0.7413049
28	0xbf7a4952	-0.9776813
29	0x3f2bf7b6	0.6717485
30	0xbfb4dc0f	-1.4129657
31	0xbdba983a	-0.09111066
32	0x3f096c11	0.5368052
33	0xbfc02aed	-1.50131
34	0xbf7c3cb9	-0.98530155
35	0xbf9c2241	-1.2197953
36	0xbf145c16	-0.5795301
37	0x3e6f651e	0.23378417
38	0x3e9e3fc7	0.30908033
39	0x3e971208	0.29505944
40	0x3d58816b	0.052857798
41	0xbf8cfeba	-1.1015236
42	0xbf7fce22	-0.9992391
43	0x3f1f7633	0.6228973
44	0x3e1713cc	0.14753646
45	0x3e4ef83c	0.20211881
46	0x3e154c1f	0.14579819
47	0xbea72147	-0.32642576
48	0xbfa25f97	-1.2685422
49	0x3f2aec24	0.6676657
50	0xbf323bf7	-0.6962275
51	0xbe46ac5c	-0.19401687
52	0x3f4a98d9	0.79139477
53	0xbf83e99f	-1.030567
54	0xbf31327d	-0.69217664
55	0xbfb19c2a	-1.3875782

l3.bias f4 [7]
0	0x3e6e3c73	0.23265247
1	0xbdb7bbda	-0.08971377
2	0x3dddb959	0.10826368
3	0x3efa477f	0.48882672
4	0xbf2c0930	-0.6720152
5	0xbcaefd85	-0.021361122
6	0x3ea102f3	0.31447563
